mnist_paramaters.npy (npy, 946384 bytes, 1 tensors)

array f8 [118282]
00000000: c681 b468 567c a83f ce8f 8df8 c6ce b2bf
00000010: 9848 48b8 832e a13f d601 021c b8b1 ad3f
00000020: 822f 4577 a7d7 aabf 9702 8265 ca12 a53f
00000030: ded5 21f6 7f6d 6a3f 03a8 1f5b acd8 a3bf
00000040: 25c1 5537 fdd5 a4bf cf57 68a3 1639 b1bf
00000050: 6381 1bea e2cc 9b3f 065e e6b1 50da a53f
00000060: 7c7c 8a1a a97c b0bf c4e7 09a2 6dbc 8e3f
00000070: 92b3 43f8 8a82 63bf 60bd c07c e175 84bf
00000080: 9a91 69b0 c228 a7bf 77ba 932c 743e abbf
00000090: cf8b 5c15 ec4c b33f 2aca ebac 0f99 92bf
000000a0: bae0 ea7f e479 afbf e032 4b92 725b a03f
000000b0: 5d2e 80a6 82ff a4bf b96e e88f b73d a9bf
000000c0: 6e1a 18bf a299 963f 263a 7b0a 4929 5f3f
000000d0: fd6b ba85 b739 a33f c38a efc3 0ca6 b13f
000000e0: 3c64 fc9f 084d ad3f 2ba3 fcfb bad7 b03f
000000f0: c5af 2d4a d5b8 a0bf d894 a2cd 47e1 9d3f
00000100: ad25 3a99 ce99 b23f d6ef 1f47 c389 8b3f
00000110: d904 2b1d bc51 b3bf d6fc dffa 720b a0bf
00000120: 9b8a 79e0 6f3e 7bbf 30ac 1169 eec8 a93f
00000130: 857e 0327 9c5d 7b3f 70fa b9bc 2f0e a3bf
00000140: 2aea 6845 0de1 a7bf e74f 13d6 4768 5fbf
00000150: fe05 f8dc 9c8a 7dbf ddd1 05bf b850 4b3f
00000160: 0e43 dd02 8b0e 6a3f db4b 34e9 499b b13f
00000170: 3929 f974 513a b2bf 56c6 8778 ce89 a3bf
00000180: 509a cb94 99dd 73bf 2ff5 147b 5664 b4bf
00000190: 1590 2183 7f08 b23f 8018 fc65 4041 b2bf
000001a0: 3164 3037 55a0 a23f aabb c393 75d7 aabf
000001b0: 2a77 4d7d 0da4 b0bf 0b5f 8b5c ddde 93bf
000001c0: e9dc d27a 754c a2bf c3d6 5d81 4db3 94bf
000001d0: fcb7 4cd6 2f71 893f 0f91 3e45 35f0 6abf
000001e0: a4eb 5d6b 3cac aabf b7f9 f650 b241 79bf
000001f0: 161e fcc2 3309 96bf d654 ec92 30b2 ac3f
00000200: c0af 2ab2 273f 9bbf 773b 9089 ff80 9a3f
00000210: e9e7 d3ee ff07 b4bf 0591 f5f9 d16d b13f
00000220: f3e1 1622 a023 843f 9a25 c7cf ddd6 ab3f
00000230: af92 5a0b 6f78 a83f 203f 7021 666e 77bf
00000240: 769a b25c 846a 98bf a607 51c3 97bb aebf
00000250: cfe8 2cc4 069e ab3f 6012 7a03 876c a2bf
00000260: 30b3 1560 6d46 a63f b89c db36 cfe2 aa3f
00000270: 7d74 1f69 13e5 b0bf c53b 679a 911e aebf
00000280: 7089 d1e7 5e69 b33f 3bce 1ab8 a2f5 89bf
00000290: c708 9f5d 4681 b4bf eb75 c195 dc60 963f
000002a0: 76e8 fef1 76da b2bf da0e a627 f293 a4bf
000002b0: d24f 7102 0d12 b4bf 7189 359d 456d a7bf
000002c0: 95e5 040b bbac 993f a286 9604 34dd a6bf
000002d0: d313 d21b e18d 973f a75a 25ed 69a6 a3bf
000002e0: 7079 d741 1213 ad3f 9b91 b493 f96b af3f
000002f0: 96ed f685 a06a 933f 7fb6 6c98 9d23 a73f
00000300: 676c be57 1e89 7c3f 8c1c 872b 6081 ab3f
00000310: d52c ea0e 24a6 7dbf 6fd8 38b3 dc38 aebf
00000320: 15ba 4ac1 7d86 c4bf 54e4 2f2b e11c d0bf
00000330: aa7f e896 e9a1 c1bf f298 cf39 a504 afbf
00000340: 8bb3 620d c830 7a3f 1b25 1eac 84e2 aabf
00000350: e2be 8122 ad86 7b3f 82e3 fd3c 2c71 a4bf
00000360: ed04 f1b4 d9e2 9dbf ab7e 4d66 c302 b1bf
00000370: 0421 b7a0 802c 983f 2c0d ec84 0ae2 a93f
00000380: 15db 32cf 3e62 98bf d159 b264 b652 b3bf
00000390: ad1c 1f9b da0a 95bf 9cea c829 dac0 9c3f
000003a0: 8242 0d6c 93cb b13f c9e6 fd92 ca5f b43f
000003b0: b14c 1fc2 9644 a53f 111b 98cd 47e9 b23f
000003c0: f864 d754 faba 953f 2485 1779 1adf 79bf
000003d0: 190f a216 5505 abbf 64ec 7342 ea57 613f
000003e0: 791a a883 0877 ad3f 4638 f8fc 6616 a0bf
000003f0: 2631 ec8e ae1e 943f 229b ccb0 15be bbbf
00000400: 263f a1b2 3dc8 cfbf 24d1 ffdc 0513 d1bf
00000410: 42c5 e368 cac7 cdbf ac99 0c48 6d38 c9bf
00000420: e259 61fb 52d2 9cbf 51b2 c7fc f67b b03f
00000430: 1a9d e5b4 bacb b1bf c90f c96c 1115 7bbf
00000440: f8df bf16 a596 b23f 294d fd7c 127d 383f
00000450: 42a3 d22c 2a38 913f d489 ad67 96bf 7fbf
00000460: 9d77 5897 dbf8 b1bf 7e77 807a 1bf8 b1bf
00000470: 8311 a094 1728 81bf a024 0d0f cb56 a7bf
00000480: 47a2 3b0d ba6b 9b3f 04a8 39ce e99e 6a3f
00000490: f578 52d4 d3ac 91bf 6d26 7727 5cae b9bf
000004a0: da61 280d b621 a0bf 4a4e 5ceb 33b8 b4bf
000004b0: ac5b 2b60 bdfa b5bf 9f08 4860 9da8 bbbf
000004c0: 636f a12a c05d a7bf 1e62 56ec c733 bdbf
000004d0: 3f7f 461a 56ad cbbf 8c37 cf43 d150 d3bf
000004e0: 3bde 17ea 20e6 c1bf 8850 3050 401b a9bf
000004f0: 02df 3c79 bfe7 bbbf d802 ce11 b40e 9dbf
00000500: 0ef4 ad41 87fc acbf bc89 0569 4f05 b1bf
00000510: 59e3 fc39 fff9 88bf 1e50 5a02 49fc aebf
00000520: c99b 9d6c e4c1 b23f d58c c6c0 38c4 a5bf
00000530: a49d 32e3 2846 b1bf 7503 5ec5 69f0 9d3f
00000540: 1cf4 44e7 43c5 aabf 4823 10dc 153c 9a3f
00000550: fcdc a4bf 5519 99bf 0fde 4759 7fa2 aabf
00000560: 8e15 b295 2a76 7f3f 7cae 570e 1e5b a4bf
00000570: 6e17 3e5c 1f33 883f f633 677b a11b b2bf
00000580: 2287 0276 bacf a8bf 1f32 e87f bfbb a03f
00000590: 5405 ec05 db7c 8abf 3032 4ef2 968a b9bf
000005a0: 22c4 aeb5 b377 c0bf 948c c597 07b4 d7bf
000005b0: 0bed 9a90 7f30 d2bf 76f1 dbdc 5618 c6bf
000005c0: 1e32 3de9 4e14 c1bf 7720 f0da 6dc2 c0bf
000005d0: 9cd1 3ef3 1a06 c5bf d870 7e76 6b48 b1bf
000005e0: f0c3 fb9f b10d adbf 690b 8489 bf03 a43f
000005f0: 5ce2 e8b7 9dfc 933f 37a3 41e7 f857 983f
00000600: 2cb9 1fcb 5c36 a9bf 54d6 1bef 06fd 87bf
00000610: 42a8 ca25 32b0 a6bf bd51 67f8 aa7c 9abf
00000620: ee8a 6f1f 442d a73f b238 ebbc 8103 68bf
00000630: 1d42 2f91 41b0 89bf 9193 1af8 0728 60bf
00000640: 0d51 8132 4482 ab3f 7404 2e00 dcae 9b3f
00000650: e04a f02f 2143 b1bf ea5d 372a 355c b0bf
00000660: 3b02 7396 ff96 9ebf 7ba7 ddd9 5eda c3bf
00000670: 1418 77c5 8e12 b8bf 760a e1c5 34ca d2bf
00000680: 6480 9b07 f8dd d4bf f7fa 98bd 4bfd d6bf
00000690: 21f4 4ca5 032a c9bf e351 78fe cd2d b8bf
000006a0: 3002 6bfd 09af c8bf 66f0 0927 5881 c3bf
000006b0: 0725 d6f7 6e42 c3bf acc0 5dfa 0662 9ebf
000006c0: 8251 7893 0265 bdbf 0e9b 891b b04d acbf
000006d0: dd7c 9592 5ddd 9d3f c46d b1e1 b653 b1bf
000006e0: c4da cd71 d0d5 94bf dcd4 3c6d 426d ae3f
000006f0: 50e5 dad5 96cf 823f 9e1c a312 689f 763f
00000700: 6765 76c2 6372 9bbf 9ee1 f9ec 394e 843f
00000710: bfc2 0d6f bd7d a63f ef26 c0f5 a034 ab3f
00000720: 5cfa 1cc4 fed2 a2bf 26a2 70bd 3fde 933f
00000730: da1a 65cc 27be 8cbf 5f63 156f 1c04 9e3f
00000740: 19e7 ca00 c704 b5bf 646e 7210 5ee7 c7bf
00000750: 8c02 14d3 1c10 c2bf 0df8 4059 8aad d3bf
00000760: 93d2 d804 36e9 d1bf d5d8 7171 bd58 c3bf
00000770: e661 96d1 6ce7 bebf 2ee0 f1a2 1c6e c4bf
00000780: fe6a af06 2e0a c9bf 3e63 d69e cef2 bbbf
00000790: c639 84fc 7272 d0bf 3992 2e37 746f bdbf
000007a0: a0df d27f 4d4e b8bf cebe 7aa0 4b47 a83f
000007b0: 4e4c 2098 9ae8 9a3f 5dbe f25f 0ce6 753f
000007c0: ab31 360b a36c b43f 64a9 89e1 0bc0 b43f
000007d0: 969d 84fa 245a b23f e809 97d3 2b20 b1bf
000007e0: 03a4 1edd f469 ad3f a275 cce9 7f23 b2bf
000007f0: 62b8 c85d 06a6 b1bf b2bd 007c 50c3 a6bf
0.04782362011087886 -0.0734676701372898 0.033558002705960266 0.05799651471989235 -0.05242656069694275 0.041158985987754075 0.0032260417220253265 -0.038762460826390586
-0.040695107464559656 -0.06727735032504188 0.02714876703146397 0.04268123790387439 -0.0644021692082663 0.015007835872200455 -0.0023815836194586793 -0.00999046480146032
-0.04523285296889697 -0.05321085971978772 0.07539248963853072 -0.01816200726438858 -0.06147684155934159 0.03194768939792936 -0.04101188929061259 -0.04929898864449229
0.022070448792897705 0.001901933030172062 0.037549719881290834 0.06893996985995003 0.057228345422295906 0.06579178478262963 -0.032660165123928254 0.02917968933674761
0.07265940895935925 0.013446355445914476 -0.07546592437849443 -0.03133735001028419 -0.006651341456378158 0.050361109090623635 0.0066810702994356585 -0.03721760920324335
-0.04663888428008918 -0.0019169522786812666 -0.007212269541470471 0.0008335973816842552 0.0031807627737311444 0.06877576774085929 -0.0712023649768171 -0.03816075536077494
-0.004850006033598378 -0.07965603356293081 0.070442170633726 -0.07130815973150284 0.0363794927472515 -0.05242507389799951 -0.06500324544091698 -0.01940484883638675
-0.03573958515465298 -0.020215235730083558 0.01242291805973749 -0.0032883682669809853 -0.05209530649786778 -0.00616616873543168 -0.021519478584222616 0.05604697984214517
-0.02660810494369037 0.0258827140533486 -0.0782470663142757 0.06808197357674224 0.009833575287175633 0.054373675931468315 0.0477938367232914 -0.005720519016008813
-0.023843830259148345 -0.06002496966586017 0.05394002098769734 -0.03598424832765512 0.04350606725606665 0.05251166863109219 -0.065995419659389 -0.058826971147588426
0.07582657966262274 -0.01267554401724801 -0.08009757791208748 0.021853872909891974 -0.07364600570773114 -0.040191237773823565 -0.07840043363222485 -0.04575555366570228
0.025072977588228424 -0.044656396446282956 0.023002164195094665 -0.038379011343456164 0.056786127602879044 0.061370658188283765 0.01896143739371111 0.04519360051777443
0.006966703916897555 0.05372143298478091 -0.00723852238901231 -0.059027573468868215 -0.1603543466384997 -0.2517626687763983 -0.13775367611469608 -0.0605823166913967
0.006394177870032612 -0.05250944710776136 0.006720234210760375 -0.03992593998459083 -0.02918567816619071 -0.06644841430306296 0.023607263383184765 0.05055268166145263
-0.023812276264574345 -0.07548084219374764 -0.020549216955058004 0.028079422760337466 0.06951257122023871 0.07958665932337818 0.04153891677528899 0.07387207764996286
0.021221076420123247 -0.006316283617225058 -0.052775057804892174 0.0021171164877365357 0.05754877669464959 -0.03142091596610945 0.01964829203920817 -0.10836921278369663
-0.24829837057267773 -0.2667860658832686 -0.23265962716645033 -0.1970345117380935 -0.028146072953257113 0.0643915526522474 -0.069514912761964 -0.006611888948615482
0.07261115842254628 0.00037366582272576 0.016815814004675696 -0.007751071471690147 -0.07020351834259349 -0.0701920675350873 -0.008377250884230808 -0.045584054553338804
0.0267781324936627 0.003249603892801824 -0.01726084693347559 -0.10031677211295582 -0.03150719557396871 -0.08093571182353645 -0.0858572349346633 -0.10804160690898577
-0.04563713570016039 -0.11407136459309483 -0.21622730524995323 -0.3018077051354957 -0.13983546667417265 -0.049036035336173234 -0.10900494298845945 -0.02837640150710538
-0.05661413838149808 -0.06648727716450414 -0.01219558139529091 -0.060518533265309524 0.07327106143712493 -0.042512677700210645 -0.06747680231875691 0.02923741595396075
-0.05228626440155201 0.025619832569677287 -0.024510707685490893 -0.0520210072026509 0.007681051584886757 -0.03975767064170285 0.011816258432883333 -0.07073411238452806
-0.048459841638090376 0.03268240391125609 -0.012933455579971088 -0.09977096000347596 -0.12865301486229536 -0.37036313840344204 -0.28421010133361396 -0.17261777671945894
-0.13343225849747936 -0.1309335059197598 -0.16424881818023784 -0.06751128809850415 -0.05674510076449468 0.03909109643611581 0.01951834139819862 0.023773087610979373
-0.0492428777650836 -0.011713079616565349 -0.04431301795314414 -0.025866195117332447 0.045267227971427335 -0.002931359667264288 -0.012543213122541858 -0.0019722133300370055
0.05372822872655734 0.02703422309014454 -0.06743056698205008 -0.06390697746916599 -0.029872888143247272 -0.1551016391561538 -0.09403316803863532 -0.29359168361785437
-0.32604790442383647 -0.3592099525011884 -0.1965946728832089 -0.09444892370840523 -0.19284176706243406 -0.1523847761744747 -0.15046488858596538 -0.02967081931223052
-0.1148225412401356 -0.05528021179343599 0.029164754936002225 -0.06768363008580197 -0.020346886583378035 0.05942733367411687 0.00918500747808318 0.0055231156677059395
-0.026803549522445815 0.009914829773365604 0.0439280698836959 0.05313590049634153 -0.036766015472029706 0.019402500092981743 -0.014034567761553363 0.029312557487489396
-0.08210414666509926 -0.18674827387882253 -0.14111671740103693 -0.3074670669192308 -0.27985907052360764 -0.15114563025753705 -0.12071876637344978 -0.1596103473309553
-0.19562316252162043 -0.10917369249217487 -0.2569854227048406 -0.11498190257277309 -0.09494480486580281 0.047418940868167433 0.02627793839935704 0.005346344317487342
0.07978266738627464 0.08105539566318992 0.07168799511111099 -0.06689714351436005 0.057449008934163735 -0.07085418184256878 -0.06893958844804751 -0.04445888055522164
