number_parameters.npy (npy, 946384 bytes, 1 tensors)

array f8 [118282]
00000000: 85d1 a3aa 5321 b23f 7d74 b69a 7890 b2bf
00000010: 0ff6 97ab 9acf aabf 7b45 3065 3c2c b1bf
00000020: 1dd2 c6aa 6be9 b23f f58e b9c8 9d63 90bf
00000030: d976 8b40 d0a2 acbf 85c0 9ba5 c667 a9bf
00000040: 4e89 e7dd f659 b13f ba39 6ad6 cc84 a83f
00000050: 3619 b9da 6537 a4bf d564 2a44 d97b b13f
00000060: 3d5e 2423 51e9 af3f 0d09 c60f 30a5 873f
00000070: cb20 a7d7 5625 ae3f 2ef9 02b6 bf7a 88bf
00000080: 4cbb 039f f533 b0bf 429b d34e cf1a 983f
00000090: 570a 1bf0 474d a1bf 5793 0ab4 0b6f b23f
000000a0: abbc 455a 0bb4 9e3f 700c 8c11 a19d b4bf
000000b0: 0acd a7b4 b70d 9e3f 9384 0d7b c832 953f
000000c0: 5367 b8c2 9478 943f 2bb5 9cf7 f11c a73f
000000d0: 3990 8c0a 4345 70bf f1b4 ef19 9132 7fbf
000000e0: e779 c58c 3597 b33f 0093 24db 69b4 6b3f
000000f0: 0b15 8eb0 634d ab3f 4c39 d644 e66e 90bf
00000100: 40a8 a4b5 54b6 b23f 8c1c dd93 5532 b33f
00000110: 059e a574 b12f 593f 2118 ffd0 e9d4 af3f
00000120: 1f6d c80b 709d a83f 34b6 5567 cd43 893f
00000130: 8099 9413 8712 ab3f b9cd e978 58c0 893f
00000140: cf23 9a6d 9b4f b23f 2a4d 02eb 564e 9b3f
00000150: a416 a43f e3a4 9dbf 8740 ea52 0fbf 95bf
00000160: daed 3d24 c417 a2bf ebdd 0c4a 3f96 85bf
00000170: feee 41f7 c83a b2bf 3c57 b981 6a4d 973f
00000180: e64b 8673 6386 6abf 4f38 fc34 12fe 843f
00000190: 8895 ddba 5ac1 823f f21e cef2 418d a8bf
000001a0: db27 3c4d b9de b1bf af00 92d4 3aae 93bf
000001b0: 9acd 7264 fd5b a53f 13b7 c33a 6074 ae3f
000001c0: 00e9 807a c4dc ab3f 34da 8174 0cee aabf
000001d0: 8bcc 98bc 1961 a2bf 468e 2aae 1fbd af3f
000001e0: 4acd 22b7 4818 af3f dfb1 2c0d 3d20 a2bf
000001f0: dc75 63c8 e65d a0bf 76dd cdaa 0d5e b2bf
00000200: 163e 427e 3c0a acbf 3441 03d6 f9f9 a73f
00000210: 3b6e f9bc 708d a63f 4f45 aa95 a871 a63f
00000220: 1f73 8fab 64af b33f 49d6 a5f8 2d91 70bf
00000230: bedf 8d1e b0e6 a2bf 2fbc 6865 fdc0 b03f
00000240: b50d 165a 4feb 793f 2530 a92a d6d6 b03f
00000250: 185a 8163 2d13 b1bf bed7 cfa7 f8e1 8fbf
00000260: bb78 9ebd f69b a53f da5f 3f34 3b05 acbf
00000270: 0791 39d5 9da9 a73f 5d94 17cd f439 b43f
00000280: 8e54 2562 e2db 7b3f 1972 608a fca3 a93f
00000290: 3571 dfb2 12a6 a4bf b158 98d9 6efb 87bf
000002a0: ed2d f83d bebb 9d3f dd29 2e6d 1292 a73f
000002b0: e08f 845e c37d 7abf d680 f171 1df2 a4bf
000002c0: b9a2 9fea e232 863f f476 16b9 e829 84bf
000002d0: c029 4d8e 08b7 a53f a716 5c5a ad6a a8bf
000002e0: 32c9 ac43 3f3f 85bf 2159 1406 bd58 8bbf
000002f0: 8ee0 1024 ef6a 8dbf b7e8 7c17 bca8 ad3f
00000300: 6e1c 23f7 88df 6bbf 29cb a71e f49d a0bf
00000310: 9251 7003 f5c8 903f 844b a50d ce66 973f
00000320: 548b 60df fc4c 67bf 401d 6ff9 eeee a6bf
00000330: 5ace c824 b281 70bf d559 556e 4731 a3bf
00000340: 5bcc d9d4 f041 95bf e26a dcbc 7524 a9bf
00000350: fb8e 02a2 7a27 a6bf eb5e 1363 8466 aabf
00000360: 891e a1e0 3dfd 8ebf 16b7 6e8f da92 a83f
00000370: f4d6 5b38 f497 b1bf 2613 d4aa 3f46 983f
00000380: df46 05d6 fe07 b43f d161 043b ea2d b03f
00000390: cfa9 e250 20eb b13f 666b 1e2a 2e7c 76bf
000003a0: 64ac 4bf8 b1e2 02bf 7b5f 125d e14e 8ebf
000003b0: d512 8912 a209 a33f 57de 49f5 19a8 ab3f
000003c0: c8b9 2f94 9831 a43f 812e d9db 22d7 89bf
000003d0: 2589 ce99 f66f 99bf f127 b6a4 2e7b ad3f
000003e0: ca66 7a38 4ee6 b1bf 40de 7993 b86f 4d3f
000003f0: 10ed 5ece 8340 853f 4464 f8a9 3837 92bf
00000400: dc0f 0cea f879 9ebf 4db8 7074 9e65 ad3f
00000410: 4071 6fd5 0aea b1bf 300e 784b 122c 7e3f
00000420: fdff 6cfe 6e85 92bf e4e1 6862 9dad b03f
00000430: 3e2b 0907 89d7 843f 6807 3073 00da a3bf
00000440: 7c40 0830 68dc ac3f 01b1 0ebd 96b7 9ebf
00000450: 34ea 23b6 8f30 b1bf 1023 4a35 68a5 b0bf
00000460: 766a b6bf 7071 983f fd56 95e1 1e1c b1bf
00000470: ab95 ec90 8a2d b13f 2341 5e8f b08a b3bf
00000480: a3ec f773 bc85 a33f 163a 27c7 4e43 a93f
00000490: 005e 8594 ae41 993f 7e31 15f4 58f6 773f
000004a0: dc93 8a20 7278 a7bf 951b b3f8 3e74 afbf
000004b0: 8a48 980c ac4d b3bf 8ad8 42db a27d 80bf
000004c0: 100b 27db 9d9c 733f 1726 899d 1025 8c3f
000004d0: 8478 c334 b77f ab3f 8e1c 647d 6c23 aa3f
000004e0: 7583 6b4b e030 633f d827 fb82 4f60 a0bf
000004f0: 0d17 60db 5b5f 903f 3aa3 5b0f 4fda a6bf
00000500: e23e 9225 2782 9cbf a465 8537 2998 943f
00000510: c47c 53a1 f84a 9dbf 1973 bbc3 c2ea 9abf
00000520: 3151 f016 8a5a a6bf e7d2 2b24 4da4 a4bf
00000530: 36de d24f 8a04 aa3f 38b7 b752 874b ad3f
00000540: 8eb6 c779 5a46 953f 5dd3 4f39 7083 5dbf
00000550: 0e08 e225 d2a5 a03f c003 7059 b905 8abf
00000560: cd32 5c28 a0e9 b03f 907c f4d9 ec75 6fbf
00000570: 5fab aeeb 0582 993f d732 4cd3 ae72 b13f
00000580: 51b9 d5a1 09d0 a13f e8f5 fefc 77b0 ae3f
00000590: ab27 f2dc d704 9abf 633f 1df6 3093 9cbf
000005a0: 29a3 394a 3b78 8d3f 1ccd 57ca d49c 98bf
000005b0: 0b4f d1c5 f743 b53f 3c44 ddff 4f35 b03f
000005c0: a550 940f 91c0 903f eede fe15 d2ac 943f
000005d0: 1abb e713 a8b1 53bf 5255 46a5 4824 a6bf
000005e0: de22 09a7 9da1 b1bf 83aa 6d9c 5d63 b1bf
000005f0: 1951 1438 fced a8bf 07b9 50d9 3ab9 a63f
00000600: 2917 d61f fb2d b03f cc2b f7bd a6c2 b03f
00000610: 67ed 56ae 9192 82bf b5e1 16c9 6f6d abbf
00000620: f7bd a0f8 b430 b1bf 1034 6b3d 2e34 99bf
00000630: 279c 48d9 7311 ae3f 540a 7db1 3ab5 95bf
00000640: d32a 3f50 114f b3bf aa32 1922 0f66 b03f
00000650: 2589 dc2f f5a0 b43f d363 13da 065a 74bf
00000660: a620 efc2 5108 b43f b9ba 7768 3ce4 733f
00000670: dd0f f041 72b7 94bf 79de 4a04 1b4d 9ebf
00000680: e358 de18 746f 813f 311d 6692 06d3 88bf
00000690: cb2d 77c0 ab44 a93f f98f 6315 3c98 b1bf
000006a0: cf99 5ce7 c2d1 a6bf 58da e93f 37e7 a8bf
000006b0: 5ba9 f4f9 b547 ad3f 4809 78a0 74c6 9b3f
000006c0: 215c 3794 2a55 a03f e554 b1fe 2bde a83f
000006d0: b797 3835 1c0a b43f d75a 3267 cbca 73bf
000006e0: 8d89 0d37 7a08 9ebf a91b b02e 0a63 b2bf
000006f0: 1b8a 21fc 4c39 a9bf cfe6 4c12 3f0d 9e3f
00000700: 5d32 5292 233a b3bf fcdf 108c 1c4c 68bf
00000710: 2ab8 c027 2a1a 8d3f 6b27 d052 8bf3 94bf
00000720: 3a9f 2f2d d43a b23f 971a e37f c944 973f
00000730: a21d 7f0c 025e 883f 82e1 eab5 66c5 b3bf
00000740: b53e a88c 830d a9bf b600 a096 b908 a5bf
00000750: 5f36 03cc b781 9cbf adfd 5c12 2256 90bf
00000760: 79c1 4916 0fce 9f3f 6b70 0099 6989 9dbf
00000770: 5f7b bc68 00b3 80bf 9397 b6ec ce26 b03f
00000780: c8cf 5e2a c4ca 8d3f 23df ce0f faf6 873f
00000790: 8d01 3041 8c2b b4bf ca95 aa19 a62c abbf
000007a0: dc1a 5bd4 0005 a03f 5424 a151 dc78 afbf
000007b0: 35c2 d2dd 2648 883f d3c6 83be e3d9 9abf
000007c0: be9f 01bc 799a 9c3f 2110 007c 35f2 adbf
000007d0: e872 444e 4988 adbf 4d80 bb34 bce7 9b3f
000007e0: 5107 4eb6 8e01 8d3f 83c3 fa27 ebc9 a9bf
000007f0: efaf 522e 349e 9e3f 0932 75b1 231e a5bf
0.07082102695478028 -0.07251695420423405 -0.052365144201740425 -0.06708123655723412 0.07387421531058931 -0.016005006195327593 -0.055929668311120735 -0.04961987277590744
0.06777899663533057 0.04788818471307672 -0.03948515219649311 0.06829603113364453 0.06232694200496922 0.011545539361354185 0.058878625702676844 -0.011952874891332312
-0.06329283840362371 0.02353977125758467 -0.03379273229576956 0.07200692315616429 0.02998368967513147 -0.08053023031611573 0.02934920349248408 0.02070153475813592
0.019991230377946433 0.04514270923241733 -0.003972303275791283 -0.007616583635337224 0.07652601897050425 0.003381926298191451 0.05332480936253078 -0.016048047973123133
0.07309464869163751 0.07498679027513527 0.0015372498479225849 0.06217127491213171 0.04807615417322552 0.01233635398485964 0.05287572969455123 0.012573901357632577
0.07152720857460725 0.02666602906590502 -0.028949309119545533 -0.02123664802144323 -0.03533757154852042 -0.010540480086645728 -0.07120948826371529 0.02275625626346954
-0.0032379095466210537 0.010250227205258393 0.009157856776890197 -0.047952710046102257 -0.06980474601382929 -0.01921932146478927 0.04171745158364644 0.05948162762966382
0.0544186973133538 -0.0525974170895335 -0.035897068283156384 0.061989774714018384 0.060732147555791885 -0.03540221010038968 -0.03196641155384913 -0.0717476408006997
-0.054765596783109924 0.04682903993091472 0.044047854488522074 0.0438358957955055 0.07689503849492184 -0.004044704032244059 -0.03691625950790421 0.0654447910862792
0.006327924698215017 0.06577814618611962 -0.06669887236908101 -0.01556772482033952 0.04220553459821149 -0.05472741139209321 0.04621594646303789 0.07900934226161511
0.006801494894110095 0.050079242603008285 -0.04032953675752752 -0.011710039153552594 0.029036495716395484 0.0460363157536283 -0.006467593346574291 -0.04090969100866608
0.010839245591300327 -0.00984556021540637 0.04241205918386326 -0.04768888214134153 -0.010374540570044919 -0.01335284876635662 -0.014364116943497398 0.057927968852213345
-0.003402488241679039 -0.032455090276832195 0.016391590437778776 0.022853107054583002 -0.0028443278233835443 -0.04479166788910982 -0.004029937623772984 -0.037485344141419276
-0.020759356490497854 -0.04910629206115914 -0.043269951130495664 -0.051563393682668344 -0.015131457727093138 0.04799540520558147 -0.06872488380380642 0.023705477525271544
0.07824700093376745 0.06320060673568341 0.06999399161092089 -0.005489521341497694 -3.602128621146212e-05 -0.01479888978273868 0.03718286968481769 0.05401688689465505
0.03944088753620495 -0.012617370924224549 -0.024841168534870967 0.05758043060912133 -0.06992043379650706 0.000898327946699369 0.01037695859473911 -0.01778877770820865
-0.029762162480451923 0.057415916170029925 -0.06997745238135611 0.00736624857336525 -0.01808713367358904 0.06514915134983529 0.010176725890365664 -0.03877259641741554
0.056369071830091294 -0.029997210778376807 -0.0671472377470444 -0.06502391148582043 0.023870240880209136 -0.06683533675581184 0.06710115469157667 -0.07633498668861143
0.038129700809770094 0.04934164219922736 0.024664619269371357 0.005850169634254219 -0.04584080359681028 -0.06143376146206162 -0.0754039316891825 -0.008052131954496628
0.004788033128025018 0.013742570693597007 0.053708768072952245 0.05105151205685231 0.0023426419023597164 -0.03198479150667283 0.0159887650152291 -0.04463431417918291
-0.02784024397675367 0.020111698163736272 -0.02860630497604856 -0.02628616637854284 -0.04365951089872267 -0.04031601969282921 0.050815889591316596 0.057216862532966706
0.02077618950163767 -0.0018013568817398442 0.03251511299551178 -0.012706230203549995 0.0660648439918063 -0.0038404108050965127 0.02491006136885276 0.06815617235788395
0.03479032612345868 0.05994009936646788 -0.02540910039946424 -0.0279052400795189 0.01438947983042878 -0.024035763597521784 0.08306835727244903 0.06331348416030463
0.016359583450210952 0.020190508453850002 -0.001202024591858203 -0.04324557321084889 -0.06887231185931905 -0.06792244977047272 -0.04869068321764498 0.044381941821813035
0.06320161368611522 0.06547014367895015 -0.009068620808526174 -0.05356931047157635 -0.06714945859925324 -0.024613115786269957 0.05872690226924986 -0.021199147303614232
-0.07542522629880048 0.06405729849320588 0.08058102053158629 -0.0049686687136380634 0.0782519436753569 0.004856334656763544 -0.020231042170067205 -0.02959100927065925
0.008513361939361313 -0.012121249525775287 0.049352042431191366 -0.06872916719618151 -0.04456910204162378 -0.04863903670495934 0.05718773533074525 0.027124235433811067
0.03189976748733892 0.048570036735933 0.07827926921217353 -0.00483207182255426 -0.029329213724290027 -0.0718237270340142 -0.0492652948166958 0.029347405902831632
-0.0751058799962236 -0.0029659802972012966 0.014210061395797242 -0.02046029751730975 0.07121015647100828 0.02272333949147284 0.011898056036342922 -0.07723085347504902
-0.04893122760779304 -0.04108219112095084 -0.027838584734857338 -0.015953571673205925 0.031059489951475314 -0.028844499553187946 -0.008153918453499718 0.06309216765529717
0.014546902220764837 0.011701539618897144 -0.07878948775760915 -0.05307501853284753 0.0312881716941342 -0.061468968357595216 0.011856368679532195 -0.026221807959649745
0.02793302736282021 -0.058488532435177605 -0.05768040733730634 0.027251187056095017 0.014163126886845541 -0.050368641500774046 0.029900374724704134 -0.04124557057602735
