number_parameters.npy (npy, 946384 bytes, 1 tensors)

array f8 [118282]
00000000: a794 65f3 35f5 59bf 951e 51d2 affe a9bf
00000010: ea58 7007 9461 813f 9873 4e73 42b3 b23f
00000020: 12fb 983c 395b 9d3f 7c8a 160f e9f9 9cbf
00000030: ec0c 138f 3d88 91bf bc57 fa9a 2300 8e3f
00000040: cb73 36e7 d0ac 92bf 919c c110 84c8 a83f
00000050: a95a 3ac7 a68f 9c3f 41a2 059f 2340 b13f
00000060: fe31 9444 efde 9dbf 1354 dbed ff6e 733f
00000070: e8ac 6fee 5ffa b13f 1b0f b3b4 0681 a3bf
00000080: f988 fcda eda3 ad3f 9a04 6068 0722 753f
00000090: c41f ce58 57e6 b2bf b0fe af6b 9117 933f
000000a0: d34a 1c2a 3898 a4bf 7142 39bd 4617 91bf
000000b0: 1fa9 c42f 7772 abbf d1fa f76c d4ae 9fbf
000000c0: 95e9 b014 4a17 903f e992 0e19 3528 b13f
000000d0: 7e7f 279d 782c 99bf e97d 3160 9df4 58bf
000000e0: 0c3f a224 056a 783f 4056 d804 1d60 91bf
000000f0: ba13 63fe 5d2d b33f 1fb2 acc3 300c aa3f
00000100: 9edb d03d 124b 953f 9ee1 ab83 5038 a5bf
00000110: 5245 1879 3262 a8bf ef13 544e 8a7a 633f
00000120: 2ea2 c268 df39 a33f 85b8 8fd8 437b 9abf
00000130: 1c38 05f4 ca54 8bbf 3e1b af3b 4bd6 ab3f
00000140: 8f26 a75c 9087 b2bf be60 c143 6427 a5bf
00000150: 4caf 3d23 d525 a0bf cfe4 5cc2 02bc 5abf
00000160: 8f66 76ea 4d37 b03f 63d9 50b3 33ed b33f
00000170: 23d9 4187 a10f b13f b6e1 19ba 12b4 adbf
00000180: c980 af92 62fa b13f b8b1 ab21 e77c aabf
00000190: e728 300d e948 883f 3582 655f 1e41 b2bf
000001a0: 91f6 d995 4f62 a03f 8aa2 9be1 b049 a7bf
000001b0: 82d6 22f4 b151 b43f e95a 731f 5f0c 91bf
000001c0: a85c f86a e496 b2bf c22d 664c 8992 b1bf
000001d0: 4885 9179 bb0b b23f c299 2b01 8b38 b2bf
000001e0: 5b06 0d9a b946 95bf 7059 549b 3b0e b43f
000001f0: 430b 4904 7dd0 93bf 2770 209a 53f5 adbf
00000200: 5556 9337 1f90 8dbf 63f0 29da 9dd3 a5bf
00000210: f789 e24e 7aa6 a93f f309 1bf6 f794 b3bf
00000220: 856b 891a 6efa a63f 9754 ce18 d237 acbf
00000230: 7895 5a0f 6407 b33f 0c6d 297a 83c0 b23f
00000240: fe25 e92c e213 b43f 2b92 d240 637d adbf
00000250: 1405 6718 11d8 a83f 00fb 5935 3a8e a03f
00000260: d1c7 411f a4e9 943f f2f5 81f5 56b4 5d3f
00000270: e2ad cc2d 8f61 7c3f db1c 784b 20ad 9dbf
00000280: 0d35 f45b 41a6 9bbf 8b76 056b 824a a03f
00000290: 5077 ed52 8ad3 9d3f c649 70d4 4bcb 8d3f
000002a0: 18a9 ef32 c942 94bf 0b3b 0695 bf41 adbf
000002b0: 1991 7249 e9e9 a93f 5072 8c31 2321 97bf
000002c0: 6e0d 043c 4cb5 85bf 50db b411 ba1b 9bbf
000002d0: 8e86 f0da 62b7 b33f b9c6 2ff7 c6a8 99bf
000002e0: 1a91 1976 b1d8 943f 6953 fbb1 5a20 933f
000002f0: 3ec7 619b bb8d 99bf 3feb f9d5 88d6 a9bf
00000300: b186 61b8 86d1 a33f 5d78 9342 8d58 a73f
00000310: 40b3 8fc2 792b b13f 0b51 9b8d 3b6b 953f
00000320: 93a3 3b63 e040 a83f 5909 8e7c 15b6 8abf
00000330: fe08 1713 763d 93bf 50b7 e75d b592 b23f
00000340: c215 87f9 34fa a5bf f1f6 fc0f af01 9bbf
00000350: d695 6e00 92a9 833f 3970 4c54 8679 b03f
00000360: f2e1 bd5e 0af9 b1bf 6f7b 7e53 1d5f a2bf
00000370: c694 2383 39b4 b33f 13e5 cde7 eecd b33f
00000380: a226 c1c1 80d8 a43f cc8a 635e e012 b03f
00000390: 1840 b40e 4de4 abbf 3d1c 7834 9ebc 883f
000003a0: 7a0a 66e5 37d5 b0bf 66f4 472f 5d05 b03f
000003b0: a429 a862 e2de 963f 3cd7 d9fa 7879 ad3f
000003c0: fae7 9faa a82f a83f a12a 165d 35a9 973f
000003d0: d95e 1272 4cf3 9d3f bb32 ca7c 7087 a33f
000003e0: 2a6d 1804 c171 acbf bf31 65c8 3c2e aabf
000003f0: 6084 44d0 9d08 ab3f c022 6563 cd43 a13f
00000400: 850e 05cf 6e46 a53f d42a b8b2 716a b4bf
00000410: c1f6 b9ff b3c1 a3bf 078a c364 0c66 963f
00000420: 6162 93ed 929d acbf 1a57 62bd bf33 913f
00000430: 9e59 10bf e073 adbf e59f 799d c08d a33f
00000440: 50dc 4630 676e b3bf 5161 1870 6008 b1bf
00000450: f627 c567 0849 99bf b1df 6aab 18ae a8bf
00000460: 0434 a390 4233 a63f d622 3cf0 1312 9ebf
00000470: c218 15be 2226 aa3f 2f9c 7036 6e8c 8bbf
00000480: 31f5 2766 4684 b1bf 86de 0c46 aadf b33f
00000490: 739a 7a81 18ac b0bf fe79 1ceb 3518 a33f
000004a0: c2be d08e 7d08 a2bf 85b9 f2cb a78e a8bf
000004b0: 4ff8 0339 ea3f a53f 3be8 610c 9da8 93bf
000004c0: c134 e6ba f678 b1bf 0064 e3fc 6666 b0bf
000004d0: e9cf 52c9 8e21 983f 24c9 3331 e2cb abbf
000004e0: 3aa2 dbab 9726 adbf cdf8 1ff9 c7c8 a33f
000004f0: a971 2611 bf21 a03f 4694 6bad 4028 9cbf
00000500: 2444 904d 2d16 a8bf 7f74 17f8 f3d7 b1bf
00000510: f331 cdca 0f14 ab3f 6a16 d68b c161 ab3f
00000520: 6e18 1da5 0d83 a1bf 53aa d522 6638 b2bf
00000530: cc11 2ade 3a27 a0bf ae31 c6a7 3871 a2bf
00000540: ecf3 dd7c 6751 923f 2730 48b3 d9f1 b23f
00000550: 4ac1 1cfc 7a2a b2bf 5f40 8e33 b2dd a93f
00000560: b8dc 9c01 afd9 aebf fc04 6f33 ef7b ac3f
00000570: b074 51f2 8df1 b33f fb94 5b30 6440 9f3f
00000580: 6ef5 ffc7 5dca a8bf 5095 6747 a6aa 86bf
00000590: 815c 4559 a364 a53f 5866 92d5 60eb 993f
000005a0: dede 871f 05e0 af3f b9a2 7751 076c abbf
000005b0: 3c84 8bf0 4d29 a73f 864b bdaf 6c18 92bf
000005c0: a7df 8236 4c9a 993f f3a7 dc50 8096 853f
000005d0: 696e 8f59 3a27 a13f 8478 d637 a572 adbf
000005e0: 9474 5e34 1210 a5bf 574a 392d f772 aabf
000005f0: 9343 348a 0f47 b33f 888e b7d8 da3b adbf
00000600: 62c6 0f20 040d aebf 68ff 362b cc0d 87bf
00000610: 73ba af5c d390 89bf 7103 e1be fe48 ae3f
00000620: 1e78 a81f fec7 a53f e8c8 5ae5 ca74 aabf
00000630: a083 1741 7c9a 9fbf f285 d410 35df b03f
00000640: 374e 9ab9 f90c 883f 322a 8ed5 329f 90bf
00000650: 7dc9 74b5 f67b 763f 5779 61f5 e55f a3bf
00000660: 0345 37e6 36e0 af3f 4db9 9086 217b 833f
00000670: 237d eec5 6669 9fbf 139a 1464 db79 a13f
00000680: bb8b e22c 8167 973f d66d 92c7 5099 a3bf
00000690: d713 16ec 948d 9cbf 5197 b216 c088 953f
000006a0: f785 807c 476a b33f a5ea 1c54 d4f9 953f
000006b0: a293 1e20 414e a1bf e8ae 419c f91d 993f
000006c0: 052d 1f8e e41d 9fbf 55cc ab0d 36eb 763f
000006d0: a694 de50 1192 7c3f d612 341e 0f7a ad3f
000006e0: 192a 827f d88e a1bf 3175 16b6 f497 5b3f
000006f0: 31ac 129b f09b 93bf 0085 caeb 4136 803f
00000700: 6c68 47ba 6088 a73f 3895 2f4c 18f3 923f
00000710: 0dee 21e8 a49a aa3f a8bc 8f0f 8238 b13f
00000720: 4c5b 2bdf f6f7 903f f825 456f 7be4 a1bf
00000730: 440e 1d3d 61b8 b1bf bdb5 5a90 c93e 903f
00000740: c106 592d 79a0 96bf eeeb ee6a 47dc a53f
00000750: 1c6c 7557 4798 93bf 5e38 bfa8 dad1 62bf
00000760: 3684 266a 6e00 af3f 9d19 ea08 4310 b13f
00000770: a314 14b1 1ba1 84bf fa2d b20d 0514 b33f
00000780: 8e75 c8d1 d998 823f 315d 52ad 29a7 923f
00000790: 4686 ba36 4116 a9bf 53a8 9997 79cf a73f
000007a0: 4e67 42f6 5565 a73f 092d ac49 2fd0 77bf
000007b0: 1473 d702 2d61 af3f 2bff e944 0eb5 a8bf
000007c0: b4fa 6921 7a40 a73f 6381 5b57 9372 b1bf
000007d0: ba1c f59e 8d44 643f a83f d4ac c7cf 89bf
000007e0: 613e 04b2 0a39 ae3f c623 4a9b 7b0d a33f
000007f0: d6b3 88f6 a8e6 843f 2467 897a 1c99 9a3f
-0.0015843417036987357 -0.05077123110146179 0.008486896969810382 0.07304778399561795 0.028668302844603373 -0.028297082467938925 -0.017121278626984912 0.014648702780771454
-0.018237365829566515 0.04840481476349468 0.02789173689833527 0.0673849356877634 -0.029170740662310728 0.004744529460102081 0.07022666522214005 -0.038093766744650114
0.05789130495237944 0.0051594056476470754 -0.07382722776503586 0.018644592473718802 -0.04022384180111307 -0.01669035463266017 -0.05360767801387766 -0.030940360213203292
0.015713841927416167 0.06701976644269404 -0.024583706466614334 -0.0015231644508942827 0.005960483637082136 -0.016968205853194585 0.07491099796887016 0.05087425602537032
0.020794186613979464 -0.04144527060811075 -0.0476241848774729 0.0023777676857457057 0.03755090860187625 -0.025860843747004942 -0.013345323154364812 0.05436930755199974
-0.07238104116472698 -0.04131615950672217 -0.03153863959491207 -0.0016317393251042316 0.06334387754614056 0.07783816459491315 0.06664475967577181 -0.058014474122447465
0.07022682267370607 -0.05173418317812967 0.011857815470666512 -0.07130613163963846 0.032000052492532245 -0.04548409227374346 0.0793715687785497 -0.01664875630816712
-0.07261493312431588 -0.06864221682751917 0.07049152105311862 -0.07117527750560895 -0.020777606990355895 0.07834217588638182 -0.019350007425838155 -0.05851231819562513
-0.014435047038584484 -0.04263013160832043 0.05009824955893188 -0.07649183042943956 0.044879379977564894 -0.055113378074716106 0.07433152556276024 0.0732500241514808
0.0784283980985023 -0.05759725729265982 0.04852345869904631 0.03233510876906642 0.020422520072720666 0.0018130158623813589 0.006928977291674939 -0.028980736356996366
-0.02700140117399479 0.03181846195614665 0.029127274810313353 0.014547912998783451 -0.019786018117806753 -0.05714224523682362 0.05061272641731502 -0.02258734693451664
-0.010599704343354967 -0.026472956972806216 0.07701700062946257 -0.02505789645869669 0.020357868989223517 0.018678109276908304 -0.024954730376016025 -0.05046489345564575
0.03870793343300017 0.045597471596679574 0.06706963539154476 0.0209168725185274 0.047369968522452365 -0.01304261003838707 -0.018789143481407138 0.07255109350782374
-0.04292455240242134 -0.026373610831106956 0.009600773466284556 0.06435432012625676 -0.07020630658178798 -0.03588191646780713 0.07696876002917738 0.07736104163440798
0.0407142864720076 0.06278803162016827 -0.054476173443731735 0.012078510261757209 -0.06575345373679822 0.06258184818575926 0.02233461119798509 0.05756738721986074
0.047238608196451495 0.023106416517786447 0.02924842306364792 0.03814269564927516 -0.05555537390702121 -0.051134013616862976 0.05280011336640977 0.0337204154807913
0.04155298497292129 -0.07974920857683837 -0.038587212530712296 0.021873658800254627 -0.05588969373792874 0.016798969205942794 -0.05752470333407021 0.038190860007318674
-0.0759033673156051 -0.06653406845760414 -0.024692660649897356 -0.04820324985979541 0.0433598329123939 -0.029365836656355913 0.0510722023996535 -0.013451443706868542
-0.06842460626645132 0.07763160906039887 -0.06512597237688471 0.037294087362386805 -0.035221027072450464 -0.047963374753964984 0.04150325723638614 -0.019197896843685874
-0.06825201094598567 -0.06406253503827486 0.023565512693224298 -0.05428988314260355 -0.056935062149765917 0.03864121357035941 0.03150746425965007 -0.02749730165932742
-0.04704419681377939 -0.0697014313404498 0.05288743353466776 0.05348019439683756 -0.03420298233554396 -0.07117307997183646 -0.031549300784749684 -0.03602006004357193
0.017888657566334773 0.07400284411431866 -0.07096069960676235 0.05051953200666114 -0.06025454420744708 0.05563304427006163 0.07790457883807522 0.030519071055910434
-0.048418932594340144 -0.01106767564210523 0.041783432624179724 0.025311959300415715 0.0622560120572737 -0.05355856770967677 0.04523700295772712 -0.0176712972891653
0.025002661540127893 0.010540964572630407 0.03350241034760588 -0.05751529986012918 -0.04113823785085305 -0.051658367414934396 0.07530305027127175 -0.057097281412805734
-0.05869305507065971 -0.011256785458385557 -0.01248326422316135 0.05915065841737189 0.04254144798709113 -0.051672306535140156 -0.030862752411738748 0.06590587292568964
0.011743498779913526 -0.01623229435385038 0.005489314752866623 -0.037841020778375416 0.06225749550106665 0.009512197417362112 -0.030675512152467676 0.034132820097784976
0.022855776180801018 -0.03827907978230953 -0.027883841428337632 0.02102947367224967 0.07584044255829513 0.021460836061332107 -0.03380015866358767 0.024528408205170132
-0.03038746945803174 0.005595408578972079 0.00697523845693585 0.05757186168378829 -0.03429295116901105 0.0016841783293338292 -0.019149550881291503 0.007915987976334637
0.04596235536492163 0.018505458498016852 0.05196109136246827 0.06726849441450844 0.0165709089004296 -0.03494630559232442 -0.0692196630671385 0.01586451476639693
-0.022096532242591452 0.042696220210437605 -0.019135584557585003 -0.002297331875502669 0.06055016561300201 0.06665438621175786 -0.010072914449219822 0.07452422699332564
0.00908060237366717 0.018215800479621073 -0.048997915201891604 0.046504783397566606 0.045695005713425205 -0.005813774793533407 0.06128826770484444 -0.048256345665320964
0.04541379602323073 -0.06815453417539667 0.002474094966291665 -0.012603340112519693 0.05902894423536221 0.03721224089264967 0.010205574058170724 0.025974698046730485
